…
lab":{"base_uri":"https://localhost:8080/"},"id":"5fj-OgLNvRia","outputId":"e8fe78ba-6108-4933-f15f-26a2c9d9d899","executionInfo":{"status":"ok","timestamp":1707224530959,"user_tz":-60,"elapsed":279,"user":{"displayName":"Tschimegma Bataa","userId":"09527200576267166560"}}},"outputs":[{"output_type":"stream","name":"stdout","text":["Model: \"sequential\"\n","_________________________________________________________________\n"," Layer (type)                Output Shape              Param #   \n","=================================================================\n"," rescaling (Rescaling)       (None, 427, 350, 3)       0         \n","                                                                 \n"," conv2d (Conv2D)             (None, 427, 350, 32)      896       \n","                                                                 \n"," max_pooling2d (MaxPooling2  (None, 213, 175, 32)      0         \n"," D)                                                              \n","                                                                 \n"," conv2d_1 (Conv2D)           (None, 213, 175, 64)      18496     \n","                                                                 \n"," max_pooling2d_1 (MaxPoolin  (None, 106, 87, 64)       0         \n"," g2D)                                                            \n","                                                                 \n"," conv2d_2 (Conv2D)           (None, 106, 87, 128)      73856     \n","                                                                 \n"," max_pooling2d_2 (MaxPoolin  (None, 53, 43, 128)       0         \n"," g2D)                                                            \n","                                                                 \n"," flatten (Flatten)           (None, 291712)            0         \n","                                                                 \n"," dense (Dense)               (None, 256)               74678528  \n","                                                                 \n"," dense_1 (Dense)             (None, 5)                 1285      \n","                                                                 \n","=================================================================\n","Total params: 74773061 (285.24 MB)\n","Trainable params: 74773061 (285.24 MB)\n","Non-trainable params: 0 (0.00 Byte)\n","_________________________________________________________________\n"]}],"source":["model_CNNbase.summary()"]},{"cell_type":"mar
…
